python/best_model.pt (torch, 401239 bytes, 6 tensors)

layer1.weight f4 [256, 124]
-0.017490488 -0.07950976 -0.05681673 -0.041793067 -0.023947595 0.06671233 -0.080293395 0.05523436
0.059814513 0.08061852 0.08514999 -0.07869249 0.059303388 0.048149433 -0.026578624 0.055033017
-0.047261223 0.03326277 0.00018970009 0.080993466 -0.0026685493 0.0009291237 -0.0068996367 -0.017687198
0.007320434 0.007582713 -0.07577605 0.04242286 0.015155412 -0.03322085 -0.082726315 0.023650995
0.06747628 -0.06594569 0.008924445 0.029991724 0.03139249 -0.019312615 0.039710063 -0.012684369
0.07356468 -0.025478017 -0.071303874 -0.007416256 -0.051969487 -0.015837764 -0.073076084 -0.06967974
-0.037928335 0.017335108 0.025690299 0.042570636 -0.060331807 -0.04215211 -0.026497733 0.072574675
-0.059049286 -0.03668061 -0.036699217 -0.035456907 -0.0039701755 -0.063558884 0.013895013 0.0056091566
-0.068759434 -0.077202156 0.078844525 -0.07971255 -0.08786954 -0.025498945 0.0017904323 -0.020374881
0.04644723 -0.07184401 -0.08195448 0.039449636 -0.08471036 -0.068670936 0.03795012 -0.021815233
0.08924799 -0.055826962 -0.0016507471 -0.043542374 -0.0588232 -0.05350072 -0.057063248 0.038584538
-0.07668319 -0.0064378837 0.052114315 0.035487734 0.002653082 -0.07082447 -0.005259915 0.075140566
0.058806837 -0.01579689 0.06603699 -0.06547514 -0.08464735 -0.031617977 -0.017432211 0.06236167
-0.010393386 -0.08250951 0.08204722 0.06474184 0.017171761 -0.019096259 -0.059444774 0.07577939
-0.022454724 -0.03354823 -0.0223528 0.009574613 -0.0767853 -0.0031642248 -0.06365555 -0.08809444
0.029764295 0.085860014 -0.024733683 -0.046761572 0.041438233 0.0297261 0.011972548 -0.0087466715
0.095935374 -0.084635295 -0.0051815207 0.026838414 0.040802497 -0.0032899997 -0.0029225107 -0.042624343
0.08484915 0.056179985 0.07608859 -0.060008846 0.026031673 -0.059303705 -0.04941052 -0.0386201
-0.016595894 0.06613381 0.0742355 -0.07451132 0.004412022 -0.014019443 -0.05896541 0.068435885
-0.07213838 0.057523694 -0.0020511698 -0.05293124 -0.00939339 -0.060615957 -0.07096296 -0.053664207
-0.021238394 -0.061208688 0.07127461 -0.041261613 -0.013730508 -0.082377024 0.025077075 -0.08476703
-0.08650302 -0.0011511388 0.004027114 0.0005816332 -0.02142656 0.071455784 0.052641492 -0.07604976
-0.0475508 -0.055195663 -0.048977032 -0.040784925 -0.00968402 0.060195405 0.051540017 -0.097842574
0.05076165 -0.03721227 -0.040556606 0.018244974 0.0025171167 -0.08162373 -0.0682005 0.039458457
0.0066024046 0.026379848 -0.006789055 0.022755174 0.00036570182 0.039083693 -0.012032668 0.022891948
-0.09094606 -0.06552695 -0.04765919 0.099149466 0.06099388 0.025679924 -0.08777511 0.015437542
-0.0014627116 0.018574549 0.024891594 0.039454974 -0.06649347 0.003409395 -0.0113139935 -0.04995217
-0.013091158 0.019494183 -0.012010269 0.017593237 -0.077494994 -0.03145585 0.040016096 0.052373797
-0.06047772 -0.00664996 0.04166941 0.031051323 0.03657015 0.014163624 0.010125418 0.0482464
-0.082976244 -0.017804911 -0.05931607 -0.0048087165 0.076850586 0.04306188 0.031127362 0.022521539
-0.06850217 -0.03784855 0.046299107 -0.039131682 0.075161986 -0.03253971 -0.024233835 -0.024245726
-0.07484892 0.015756981 0.06517642 -0.027614431 0.008581264 -0.06462226 0.04461036 0.06527263
00000000: 3648 8fbc 03d6 a2bd a9b8 68bd 352f 2bbd
00000010: bf2d c4bc 79a0 883d dd70 a4bd 6d3d 623d
00000020: 1000 753d 531b a53d 1e63 ae3d 8729 a1bd
00000030: 1ce8 723d 5738 453d 6abb d9bc 4d6a 613d
00000040: fc94 41bd 8b3e 083d 3bea 4639 e7df a53d
00000050: d4e2 2ebb 7090 733a 5916 e2bb bee4 90bc
00000060: 40e0 ef3b 6878 f83b 7930 9bbd 98c3 2d3d
00000070: 684e 783c 9612 08bd 6a6c a9bd bbbf c13c
00000080: 0131 8a3d 890e 87bd d637 123c 34b1 f53c
00000090: 6995 003d 7d35 9ebc 05a7 223d 1ad2 4fbc
000000a0: 14a9 963d 46b7 d0bc c407 92bd 1004 f3bb
000000b0: f5dd 54bd 33be 81bc eaa8 95bd 40b4 8ebd
000000c0: be5a 1bbd 5b02 8e3c 7674 d23c 8c5e 2e3d
000000d0: 7c1e 77bd b1a7 2cbd c611 d9bc 08a2 943d
000000e0: aadd 71bd 683e 16bd eb51 16bd 433b 11bd
000000f0: 3f18 82bb 292b 82bd e9a7 633c 04cd b73b
00000100: bfd1 8cbd 2a1c 9ebd 3d79 a13d 5540 a3bd
00000110: f2f4 b3bd 2ae3 d0bc f0ac ea3a 39e9 a6bc
00000120: 733f 3e3d f422 93bd c0d7 a7bd f195 213d
00000130: a07c adbd 59a3 8cbd 9671 1b3d dcb5 b2bc
00000140: a6c7 b63d d0aa 64bd e25d d8ba 7d59 32bd
00000150: 99f0 70bd 9223 5bbd 27bb 69bd d20a 1e3d
00000160: 140c 9dbd e2f4 d2bb d275 553d 965b 113d
00000170: 54df 2d3b 6b0c 91bd 5d5b acbb 4ce3 993d
00000180: 70df 703d 7b68 81bc 673e 873d d517 86bd
00000190: 975b adbd da81 01bd ffcd 8ebc f36e 7f3d
000001a0: 0549 2abc bffa a8bd 5f08 a83d 5f97 843d
000001b0: cbab 8c3c c26f 9cbc 5d7c 73bd 3a32 9b3d
000001c0: f8f2 b7bc de69 09bd 381d b7bc d6de 1c3c
000001d0: 9d41 9dbd e25e 4fbb d75d 82bd dc6a b4bd
000001e0: 40d4 f33c 60d7 af3d 4b9e cabc 1089 3fbd
000001f0: 23bb 293d 2684 f33c 8228 443c 334e 0fbc
00000200: c479 c43d 4555 adbd bfc9 a9bb 3cdc db3c
00000210: 8520 273d 099d 57bb 9887 3fbb dd96 2ebd
00000220: 64c5 ad3d fc1c 663d 56d4 9b3d d6cb 75bd
00000230: 6040 d53c 71e8 72bd af62 4abd 1c30 1ebd
00000240: 1df4 87bc 2a71 873d c808 983d 6499 98bd
00000250: b992 903b ceb1 65bc b785 71bd 1d28 8c3d
00000260: 49bd 93bd f79d 6b3d eb6c 06bb 6ece 58bd
00000270: bce6 19bc 7048 78bd 0755 91bd 00cf 5bbd
00000280: 24fc adbc f6b5 7abd 6cf8 913d f001 29bd
00000290: edf5 60bc 49b5 a8bd 706e cd3c 569a adbd
000002a0: 7f28 b1bd cfe1 96ba e1f5 833b be78 183a
000002b0: c186 afbc 6957 923d 9b9e 573d fabf 9bbd
000002c0: a1c4 42bd d914 62bd 249c 48bd 180e 27bd
000002d0: b9a9 1ebc 758f 763d a01b 533d b061 c8bd
000002e0: 73eb 4f3d e56b 18bd af1e 26bd 7c76 953c
000002f0: 36f6 243b 582a a7bd b4ac 8bbd 319f 213d
00000300: fc58 d83b 8d1a d83c b976 debb 0f69 ba3c
00000310: abbb bf39 3916 203d ab24 45bc e587 bb3c
00000320: ee41 babd fe32 86bd 4836 43bd e00e cb3d
00000330: b8d4 793d b45e d23c 70c3 b3bd bfed 7c3c
00000340: 75b8 bfba a729 983c 75e9 cb3c 8a9b 213d
00000350: ba2d 88bd 2870 5f3b 545e 39bc a69a 4cbd
00000360: 4c7c 56bc 44b2 9f3c b8c6 44bc b11f 903c
00000370: b2b5 9ebd d9d7 00bd ebe7 233d e885 563d
00000380: 7cb7 77bd e8e7 d9bb 8bad 2a3d 585f fe3c
00000390: 95ca 153d 8b0e 683c 15e5 253c 049e 453d
000003a0: 73ef a9bd 9bdb 91bc 68f5 72bd 7092 9dbb
000003b0: d763 9d3d a761 303d cffe fe3c 177f b83c
000003c0: de4a 8cbd 1507 1bbd 22a4 3d3d 8b48 20bd
000003d0: 87ee 993d 5c48 05bd 0986 c6bc f99e c6bc
000003e0: 644a 99bd c914 813c 377b 853d a937 e2bc
000003f0: 6e98 0c3c ad58 84bd 5ab9 363d a8ad 853d

layer1.bias f4 [256]
-0.08393388 -0.014131484 0.07145493 -0.083443776 0.03648705 -0.05414018 -0.0034146563 0.06634667
-0.080546744 0.011199441 -0.05477656 0.06506955 -0.024413755 0.022455484 -0.010598603 -0.086240485
0.0557553 0.02667375 0.042437345 0.062067073 -0.040091664 -0.017243681 -0.048222326 -0.016618965
0.076361164 0.07788659 -0.08496613 -0.07408603 -0.05323811 0.07270534 -0.0070918393 -0.026695926
0.013274979 -0.010729458 -0.025355179 -0.036448658 -0.061201338 0.078783736 -0.05145408 0.07364823
0.107080154 -0.021181632 0.058307108 -0.07073525 -0.0147826 0.036387734 -0.05732673 0.087154835
0.08319414 -0.052447475 -0.007538028 0.035281237 -0.015130363 0.021973394 0.011009004 -0.063334495
0.079481356 0.020310473 -0.051655814 -0.078083605 -0.0032771383 0.053699575 -0.028424384 0.06910524
0.04884964 0.0171959 -0.024448173 0.008080581 -0.04449706 0.022384267 -0.04352566 -0.011835019
0.06958635 -0.048697617 0.020445762 -0.08746986 0.08571139 -0.03726589 -0.04430394 0.038320936
-0.07720791 0.07263881 0.03074862 0.054334473 0.08154612 0.01040142 0.075645275 -0.047462266
0.06829164 -0.02995393 0.042117625 0.066639416 0.021555118 -0.01835311 0.022463502 -0.07604272
0.05767989 0.073749974 -0.052666534 -0.050469942 0.089465946 -0.033443805 -0.04300285 -0.009604732
-0.06550267 -0.028098447 -0.020185703 -0.040249255 -0.034324106 -0.0018790867 -0.061377537 -0.0623904
-0.029193103 -0.020608226 0.055960182 -0.008969611 0.03784523 0.005952438 0.057607085 0.028701447
0.08383126 -0.009569464 0.09028263 -0.08290896 -0.041873097 -0.08098897 0.07563503 0.006483392
0.029638885 0.031323016 -0.04368486 0.0822208 -0.047063913 -0.06168504 0.020668747 0.08150875
-0.08324082 -0.0020697953 -0.059391327 -0.067273594 -0.03607252 0.025016662 0.042724952 0.034455758
-0.047157485 0.010679309 -0.077402726 -0.034238894 0.08667922 0.059420034 -0.06743693 0.03391053
0.015533938 0.050117686 -0.05917614 -0.049795356 0.06156215 -0.047769647 0.04023953 0.041580677
0.024170447 -0.07927235 -0.051804285 -0.055593703 -0.08216095 -0.05095914 -0.040907416 -0.043831974
0.082110904 -0.007623889 0.08834276 -0.03963795 -0.041162 -0.06062722 -0.05127817 -0.01744396
-0.086360425 0.05287605 -0.07978483 0.08090084 -0.054661624 0.034415435 -0.06143118 0.022006854
-0.055952776 -0.032980837 -0.066273086 -0.044672456 0.046607908 0.05553979 0.06659784 -0.0075848554
0.038944203 -0.023548728 0.018499546 -0.0034751482 -0.03309622 -0.015867885 0.06816457 -0.07795312
0.01011127 0.07028732 -0.01913052 0.034503613 0.040760357 0.06859148 0.07043755 0.082535885
0.07511385 0.0033554381 0.080500536 -0.075442664 0.084279984 -0.018352207 -0.037032183 -0.05257346
-0.06195428 -0.02215997 -0.061032582 0.0790076 0.040650353 -0.0857149 0.027909905 -0.02679194
-0.040313646 -0.077230655 -0.022144381 0.084024265 0.025178343 0.048642106 -0.018817846 -0.025140975
-0.04712111 0.038964316 -0.043241255 -0.0060093175 -0.049669232 0.07721378 -0.08567412 0.06302946
0.034511272 -0.018514276 0.036715448 -0.08398613 0.046529647 -0.024919216 -0.060623925 -0.043003906
-0.072540306 0.037151627 0.07736327 0.08611986 -0.0064632893 -0.001524336 0.041598722 -0.08142339
00000000: 87e5 abbd bd87 67bc f656 923d 92e4 aabd
00000010: 7273 153d 18c2 5dbd 6dc8 5fbb c3e0 873d
00000020: b1f5 a4bd dc7d 373c 635d 60bd 2f43 853d
00000030: 5bff c7bc 90f4 b73c c3a5 2dbc da9e b0bd
00000040: ab5f 643d e882 da3c c8d2 2d3d 0b3a 7e3d
00000050: 2837 24bd 9f42 8dbc c684 45bd 7f24 88bc
00000060: 3e63 9c3d 0183 9f3d b902 aebd 6bba 97bd
00000070: 3410 5abd 8ae6 943d a962 e8bb 6ab1 dabc
00000080: 4c7f 593c 9cca 2fbc aab5 cfbc 304b 15bd
00000090: 41ae 7abd 5e59 a13d 83c1 52bd e2d4 963d
000000a0: d74c db3d 1a85 adbc 6fd3 6e3d a5dd 90bd
000000b0: b832 72bc 4e0b 153d 6fcf 6abd 3c7e b23d
000000c0: b061 aa3d 2ad3 56bd 9001 f7bb 0f83 103d
000000d0: 58e5 77bc 8c01 b43c 1c5f 343c 84b5 81bd
000000e0: 1fc7 a23d 2662 a63c 0c95 53bd 4cea 9fbd
000000f0: 42c5 56bb 16f4 5b3d 41da e8bc 0c87 8d3d
00000100: 8f16 483d 6bde 8c3c 8947 c8bc 6a64 043c
00000110: 8d42 36bd 365f b73c f647 32bd abe7 41bc
00000120: 4a83 8e3d 2777 47bd df7d a73c 6623 b3bd
00000130: 7489 af3d 1ea4 18bd 0c78 35bd 6af6 1c3d
00000140: 2e1f 9ebd a8c3 943d 88e4 fb3c d38d 5e3d
00000150: a701 a73d b86a 2a3c e9eb 9a3d cb67 42bd
00000160: 7ddc 8b3d f261 f5bc 8883 2c3d 3f7a 883d
00000170: 5c94 b03c 4359 96bc 6105 b83c 49bc 9bbd
00000180: c041 6c3d 3a0a 973d ddb8 57bd 92b9 4ebd
00000190: ec39 b73d 5ffc 08bd c223 30bd 2a5d 1dbc
000001a0: 4426 86bd b72e e6bc 7d5c a5bc 67dc 24bd
000001b0: 6f97 0cbd b04b f6ba 0367 7bbd 138d 7fbd
000001c0: 6026 efbc 95d2 a8bc 8136 653d 46f5 12bc
000001d0: 9a03 1b3d ab0c c33b 68f5 6b3d 4c1f eb3c
000001e0: b9af ab3d 3ec9 1cbc 19e6 b83d 2ccc a9bd
000001f0: 2083 2bbd 8cdd a5bd 8ae6 9a3d a272 d43b
00000200: 3fcd f23c 904c 003d e5ee 32bd 6163 a83d
00000210: 17c6 40bd 74a9 7cbd 8151 a93c 0fee a63d
00000220: 2a7a aabd 67a5 07bb 5244 73bd bdc6 89bd
00000230: c7c0 13bd beef cc3c 5c00 2f3d 7b21 0d3d
00000240: 3528 41bd 45f8 2e3c 5285 9ebd 153e 0cbd
00000250: e084 b13d 6c62 733d 601c 8abd c5e5 0a3d
00000260: 0f82 7e3c 3448 4d3d ae62 72bd 37f6 4bbd
00000270: 9828 7c3d 1baa 43bd 35d2 243d 8050 2a3d
00000280: 1a01 c63c 8b59 a2bd bb30 54bd 39b6 63bd
00000290: 0044 a8bd 88ba 50bd 898e 27bd 2889 33bd
000002a0: c329 a83d d1d1 f9bb 0ded b43d 675b 22bd
000002b0: 7c99 28bd 3f54 78bd 0f09 52bd a3e6 8ebc
000002c0: bcdd b0bd 8f94 583d 3b66 a3bd 57af a53d
000002d0: dee4 5fbd 33f7 0c3d 439f 7bbd b847 b43c
000002e0: bd2e 65bd ea16 07bd 2fba 87bd 77fa 36bd
000002f0: efe7 3e3d b17d 633d 7364 883d 618a f8bb
00000300: f583 1f3d 43e9 c0bc 5c8c 973c 50bf 63bb
00000310: e78f 07bd 5efd 81bc de99 8b3d e3a5 9fbd
00000320: bda9 253c ccf2 8f3d 9cb7 9cbc a953 0d3d
00000330: 55f4 263d b179 8c3d 9041 903d 9308 a93d
00000340: 4ad5 993d e9e6 5b3b 77dd a43d af81 9abd
00000350: fc9a ac3d 5e57 96bc 0faf 17bd 4557 57bd
00000360: c5c3 7dbd d388 b5bc 4dfd 79bd bdce a13d
00000370: fc80 263d 4b8b afbd 50a3 e43c c57a dbbc
00000380: ec1f 25bd 1b2b 9ebd 2268 b5bc ea14 ac3d
00000390: d042 ce3c f23c 473d e227 9abc 72f4 cdbc
000003a0: 1102 41bd 0c99 1f3d be1d 31bd cfe9 c4bb
000003b0: f771 4bbd 4222 9e3d ea75 afbd 9715 813d
000003c0: b15b 0d3d 40ab 97bc f062 163d ec00 acbd
000003d0: df95 3e3d 6223 ccbc cb50 78bd dd24 30bd
000003e0: 0390 94bd 4e2c 183d a270 9e3d 9c5f b03d
000003f0: 00ca d3bb 3bcc c7ba 6c63 2a3d 4ec1 a6bd

layer2.weight f4 [256, 256]
-0.048521053 -0.020088622 0.05393802 0.021935519 -0.012952851 -0.015976524 0.042280134 -0.0027781392
-0.051426742 0.022801407 -0.023945693 0.032511357 -0.050968066 -0.005741596 0.008167033 -0.026335612
-0.053363625 -0.011002043 0.01567365 -0.030940529 -0.027490456 -0.048853498 -0.053351056 0.058884546
0.04732056 0.014721897 -0.018643638 -0.033007935 0.055935152 0.057078756 -0.009808962 -0.028256416
-0.004077527 -0.030038528 0.0497875 -0.009192338 -0.033714328 0.048134428 -0.009625502 0.013781283
0.023287814 0.03961125 -0.019416599 -0.047864962 -0.03716416 0.005709136 0.019447852 -0.045741454
0.012833802 -0.008890472 0.017580155 0.04287852 0.008028506 -0.009405417 -0.03728239 -0.024304016
-0.038785357 0.0118441135 0.014453441 -0.019957133 0.057140224 -0.043703366 0.0066836956 -0.030933032
0.023360541 0.048813183 0.05407018 0.023943264 0.0451873 -0.047747727 0.034672547 0.002405019
-0.04370083 0.025979515 -0.05038993 -0.05336705 0.008942654 -0.008332585 -0.04646355 0.026962386
-0.035114355 0.014953844 -0.042361733 -0.023382014 -0.016310025 0.022221228 -0.045803264 -0.022872485
0.03167225 -0.038028188 0.048654635 0.022793138 -0.029625023 0.019612227 0.03594224 0.043807417
0.00059649313 -0.020089693 0.009526005 -0.029038139 -0.046702776 -0.05603663 -0.021026116 0.0062309476
-0.05304033 0.029087417 -0.041005168 -0.058431312 0.021549134 -0.015280514 -0.049313914 -0.060858976
0.055551115 0.041948143 0.051180854 -0.0527798 -0.0089744935 0.017519329 -0.052400857 0.03668112
0.052166693 0.04630682 -0.0027136405 0.022632547 0.029341675 -0.058345065 -0.016121935 0.018756296
0.041520786 0.017245699 -0.037184455 -0.047418658 -0.025675353 0.0229453 0.036800534 -0.020632526
-0.017610127 -0.060864653 0.058123138 0.043974496 0.010420749 0.010444705 -0.039782267 0.062302735
0.012545292 -0.027280072 -0.03796071 -0.031062953 0.044516087 -0.0065999967 0.035299413 -0.015125021
0.03863849 -0.019938048 0.056624427 0.03387824 -0.05513877 -0.050762445 0.017612923 -0.013025576
0.023613667 0.048107244 0.0094096875 0.0018946375 0.03326793 -0.03812774 -0.0058267764 -0.058527622
0.043119572 -0.04739429 -0.012343805 -0.013302679 -0.026407551 -0.028459126 0.0399254 -0.035819538
0.0538017 -0.061698847 0.057072602 -0.0463481 -0.036380835 0.057664797 0.02628503 0.007198481
-0.056169607 0.041115362 -0.036080834 -0.051777545 0.015213973 0.046831105 0.029392175 0.049236383
-0.05779421 0.030345356 -0.056284484 0.019380663 0.02788755 0.013348553 -0.025598994 -0.048139177
0.06042608 0.03847404 -0.015560911 0.05160121 0.053792123 0.045432344 -0.03317475 0.028954193
-0.029811576 0.01054274 0.022647155 -0.044440266 0.054120228 -0.014221267 0.028383413 0.039468568
-0.031349357 -0.034263413 -0.043977723 0.054043744 -2.646472e-05 -0.012667451 0.019617893 -0.06140777
-0.018466245 0.029766768 0.0068974216 0.03091412 0.05775875 -0.024283228 0.058824822 0.047505725
0.037370324 -0.0579247 0.031195728 0.01918261 -0.022532098 -0.032465655 -0.022651248 0.046033524
-0.0058346572 -0.028476495 0.03877616 -0.015747568 0.031401496 -0.036071762 -0.009732347 0.04456652
0.0032276367 -0.044596463 0.007956365 0.055833094 -0.036740314 0.025443342 0.03205998 0.04360366
00000000: 03be 46bd e590 a4bc 1dee 5c3d 1eb2 b33c
00000010: 3238 54bc 33e1 82bc ef2d 2d3d 7111 36bb
00000020: d9a4 52bd 04ca ba3c c229 c4bc a12a 053d
00000030: e4c3 50bd 0024 bcbb 05cf 053c c8bd d7bc
00000040: d193 5abd ea41 34bc 0766 803c fe76 fdbc
00000050: aa33 e1bc 9b1a 48bd a386 5abd ec30 713d
00000060: 34d3 413d 1d34 713c 8bba 98bc 5433 07bd
00000070: 421c 653d 6acb 693d c5b5 20bc 007a e7bc
00000080: c79c 85bb 5c13 f6bc faed 4b3d 769b 16bc
00000090: 0918 0abd 9b28 453d 48b4 1dbc e4ca 613c
000000a0: 16c6 be3c 683f 223d 8f0f 9fbc 0d0e 44bd
000000b0: 7239 18bd b413 bb3b 1a51 9f3c 645b 3bbd
000000c0: de44 523c 58a9 11bc 4204 903c 63a1 2f3d
000000d0: ff89 033c 2e19 1abc 6bb5 18bd 3719 c7bc
000000e0: 65dd 1ebd d00d 423c 20ce 6c3c 247d a3bc
000000f0: de0b 6a3d 4d02 33bd e702 db3b 4567 fdbc
00000100: 9b5e bf3c 55f0 473d b178 5d3d aa24 c43c
00000110: 5116 393d 1f93 43bd cd04 0e3d 869d 1d3b
00000120: a4ff 32bd fed2 d43c ac65 4ebd 6897 5abd
00000130: 3684 123c 6585 08bc 9050 3ebd 39e0 dc3c
00000140: 12d4 0fbd f800 753c 7f83 2dbd a38b bfbc
00000150: 9a9c 85bc 4b09 b63c 349c 3bbd 145f bbbc
00000160: c3ba 013d 72c3 1bbd 154a 473d adb8 ba3c
00000170: 2db0 f2bc d2a9 a03c 2c38 133d 686f 333d
00000180: fa5d 1c3a 2493 a4bc f612 1c3c 64e1 edbc
00000190: 694b 3fbd aa86 65bd f63e acbc fa2c cc3b
000001a0: d140 59bd bc48 ee3c 09f5 27bd ac55 6fbd
000001b0: cf87 b03c 1f5b 7abc 63fd 49bd 4347 79bd
000001c0: 9189 633d d1d1 2b3d 04a3 513d a22f 58bd
000001d0: c109 13bc b284 8f3c 48a2 56bd f13e 163d
000001e0: beac 553d 38ac 3d3d 55d7 31bb e467 b93c
000001f0: f45d f03c 3cfb 6ebd 2612 84bc cea6 993c
00000200: b311 2a3d da46 8d3c ba4e 18bd 113a 42bd
00000210: 1e55 d2bc c8f7 bb3c 28bc 163d 8b05 a9bc
00000220: 1d43 90bc 374d 79bd 8712 6e3d 9a1e 343d
00000230: cabb 2a3c 4520 2b3c bbf2 22bd 2731 7f3d
00000240: c58a 4d3c 757a dfbc b07c 1bbd bc77 febc
00000250: 8056 363d c944 d8bb 1e96 103d f0ce 77bc
00000260: 6543 1e3d 1e55 a3bc 04ef 673d e9c3 0a3d
00000270: 31d9 61bd 48ec 4fbd fa48 903c 3a69 55bc
00000280: 7371 c13c 1a0c 453d 172b 1a3c 7c55 f83a
00000290: f443 083d d52b 1cbd 8bee bebb a9ba 6fbd
000002a0: 269e 303d 8420 42bd ac3d 4abc 7bf3 59bc
000002b0: a654 d8bc 1d23 e9bc d188 233d 82b7 12bd
000002c0: 2c5f 5c3d eeb7 7cbd f6c4 693d 81d7 3dbd
000002d0: 1204 15bd ec31 6c3d b453 d73c 3ce1 eb3b
000002e0: 1a12 66bd 9568 283d 7fc9 13bd b114 54bd
000002f0: 0744 793c f9d1 3f3d dcc7 f03c 17ac 493d
00000300: 9fb9 6cbd d396 f83c 8f8a 66bd 32c4 9e3c
00000310: 6e74 e43c e4b3 5a3c fbb4 d1bc 962d 45bd
00000320: 5681 773d f496 1d3d 31f3 7ebc ca5b 533d
00000330: 2155 5c3d 4417 3a3d 3fe2 07bd 5831 ed3c
00000340: 6837 f4bc 75bb 2c3c 8786 b93c ff06 36bd
00000350: 2cad 5d3d 5100 69bc 5584 e83c cba9 213d
00000360: 2f68 00bd cb57 0cbd fc21 34bd f95c 5d3d
00000370: 8e00 deb7 248b 4fbc b4b5 a03c b786 7bbd
00000380: 8646 97bc 70d9 f33c c403 e23b 9c3f fd3c
00000390: 7094 6c3d 9fed c6bc 4cf2 703d 5d95 423d
000003a0: a011 193d 7342 6dbd 2f8e ff3c d924 9d3c
000003b0: 3c95 b8bc b5fa 04bd 1c8f b9bc a68d 3c3d
000003c0: a730 bfbb 8a47 e9bc c0d3 1e3d 0b01 81bc
000003d0: db9e 003d fcbf 13bd 6c74 1fbc 628b 363d
000003e0: c286 533b c8aa 36bd 6a5b 023c 3eb1 643d
000003f0: 037d 16bd 8e6e d03c 5351 033d c099 323d

layer2.bias f4 [256]
0.054462783 0.024293907 -0.05605825 -0.024057928 -0.001610829 -0.038298722 0.00021955011 0.023095569
-0.0011526726 -0.038358618 0.013909247 0.027892003 -0.043200076 0.047945336 -0.031795505 0.047738727
0.0042265276 -0.020655366 0.025982868 0.041068245 0.0022068054 0.021342337 0.0010096874 0.055608746
-0.0010730162 -0.044156138 -0.0019283172 0.041989893 -0.017834174 -0.0047514173 -0.0024110018 -0.029595591
-0.004170723 0.007215753 -0.019232977 -0.004518348 -0.0077717775 -0.056448918 0.046368327 0.007407031
0.058551397 0.05401047 0.022161443 -0.054032605 0.054437447 -0.020415029 -0.011646578 -0.028541625
-0.0026523448 0.06123257 0.0103176525 -0.023513986 0.039540883 -0.049047563 -0.012445043 -0.027949909
-0.044235244 0.026246365 0.03437441 0.01806809 0.004916671 -0.020077154 -0.033857066 0.031206725
0.052046765 0.017059026 -0.05246572 0.049374696 0.031712636 -0.022424648 0.057020232 -0.021200757
0.037389267 0.050449733 -0.0441714 0.05086051 -0.055125084 0.015290559 -0.015954413 0.058823463
-0.027363714 0.029573925 0.008602307 -0.028784132 -0.022654131 -0.02091952 -0.029400675 -0.050477684
0.033079207 -0.024158573 0.02457583 0.052593067 -0.035255063 -0.056559626 -0.03052444 0.034180496
-0.008566345 -0.059489172 0.031889524 0.048248276 0.009959017 0.020935824 -0.05040923 0.012995266
-0.018203761 -0.0017991047 -0.017398594 0.04883482 -0.035759445 -0.047902178 0.017725995 0.029191583
0.028066197 0.0045620888 0.03724645 0.058956772 -0.017667156 0.024632988 -0.04573702 -0.010214065
0.04441741 0.0350755 -0.055566758 0.021255687 -0.022679081 0.022093726 0.028248878 0.013233657
-0.045834087 0.038064085 0.028518757 -0.048197854 -0.02463883 0.03243306 0.00703331 0.047971956
-0.015409431 -0.033505883 0.04969959 0.018041778 0.028269222 -0.04310885 -0.04311414 0.047281556
0.0056000543 0.043290183 0.047417555 0.032467246 0.018894825 -0.026621785 0.02139759 -0.048203308
-0.03667993 -0.058035344 0.0251163 0.034405936 -0.05013512 0.058757156 0.0033889313 0.024556695
-0.04234999 -0.060903944 -0.0529739 -0.04439996 -0.037240114 0.024919841 0.03426753 0.030475816
0.048811894 0.007325366 0.029975628 0.038647827 -0.020512456 0.04420609 0.027761439 0.06480766
0.028222894 0.0051803635 0.022200534 -0.019033242 -0.030633194 -0.044972304 -0.022730004 -0.06262288
-0.058756676 -0.045758672 -0.018198004 0.049118027 0.04912599 0.037069187 0.01993368 -0.019907132
0.031896267 -0.013618813 0.035737533 -0.006986637 -0.029147858 -0.0039144675 -0.036407743 0.032641303
-0.0047325203 -0.028355753 0.034160417 -0.03449172 -0.057620052 -0.013392315 -0.0418122 0.0019680632
-0.04105335 -0.01443845 0.039253995 0.0029589075 -0.001118444 0.048329767 -0.029462285 -0.01643846
-0.034765135 -0.054305695 0.0474825 0.011311594 -0.059295468 0.0604019 0.008234651 -0.03346381
0.021282326 0.035664186 0.047808804 0.04446162 -0.012450791 0.0061788447 -0.0059488243 -0.023557125
-0.019638728 -0.033310965 -0.016930548 -0.021453543 -0.025884807 0.0006797295 0.03449114 0.003159367
-0.053340457 -0.0066551343 -0.002862391 -0.017409107 -0.040681783 0.04250274 -0.04693937 0.017332317
0.044829063 -0.00949738 0.00068157655 -0.0012827864 0.001958072 0.03879208 0.059163496 -0.00096592813
00000000: 5e14 5f3d 0404 c73c 569d 65bd 2215 c5bc
00000010: 7422 d3ba 1fdf 1cbd 0937 6639 eb32 bd3c
00000020: 4615 97ba ed1d 1dbd 9ce3 633c c57d e43c
00000030: 90f2 30bd 5462 443d 013c 02bd af89 433d
00000040: af7e 8a3b 7135 a9bc 06da d43c 2d37 283d
00000050: 0da0 103b 20d6 ae3c 7d57 843a ffc5 633d
00000060: 73a4 8cba 11dd 34bd 97bf fcba 98fd 2b3d
00000070: f918 92bc c7b1 9bbb e601 1ebb 7472 f2bc
00000080: 8faa 88bb 2072 ec3b 7a8e 9dbc a60e 94bb
00000090: 65aa febb fb36 67bd b7ec 3d3d aeb6 f23b
000000a0: 97d3 6f3d 153a 5d3d ea8b b53c 4b51 5dbd
000000b0: cdf9 5e3d 6b3d a7bc 4ad1 3ebc 20d0 e9bc
000000c0: f6d2 2dbb 01cf 7a3d 5f0b 293c 67a0 c0bc
000000d0: 9ff5 213d 19e6 48bd 4be6 4bbc 35f7 e4bc
000000e0: 0430 35bd 9e02 d73c 2ecc 0c3d 8803 943c
000000f0: 071c a13b d878 a4bc b5ad 0abd 3fa5 ff3c
00000100: fd2e 553d 5fbf 8b3c 4be6 56bd 1f3d 4a3d
00000110: 1ce5 013d e5b3 b7bc 0c8e 693d 36ad adbc
00000120: 7d25 193d 61a4 4e3d 12ed 34bd 1c53 503d
00000130: d7ca 61bd 4185 7a3c d4b2 82bc dff0 703d
00000140: de29 e0bc 0445 f23c b1f0 0c3c b3cc ebbc
00000150: 2895 b9bc 6a5f abbc afd9 f0bc b0c1 4ebd
00000160: 107e 073d 33e8 c5bc 4053 c93c d46b 573d
00000170: 9d67 10bd 11ab 67bd 640e fabc d900 0c3d
00000180: db59 0cbc ebaa 73bd 979e 023d fc9f 453d
00000190: 252b 233c 9b81 ab3c e979 4ebd 19ea 543c
000001a0: 0e20 95bc f0cf ebba 7f87 8ebc 0507 483d
000001b0: 7f78 12bd 1335 44bd 1b36 913c 3023 ef3c
000001c0: 15eb e53c 937d 953b bc8f 183d a87c 713d
000001d0: b6ba 90bc 1fcb c93c be56 3bbd e558 27bc
000001e0: 08ef 353d 54ab 0f3d f899 63bd 6820 ae3c
000001f0: 7bc9 b9bc e7fd b43c 316a e73c fbd1 583c
00000200: 86bc 3bbd 16e9 1b3d 2ba0 e93c 1d6b 45bd
00000210: 5fd7 c9bc 87d8 043d ae77 e63b 3e7e 443d
00000220: d777 7cbc 773d 09bd cc91 4b3d 5acc 933c
00000230: db94 e73c e892 30bd 7498 30bd 4eaa 413d
00000240: a980 b73b 0c51 313d e938 423d 60fc 043d
00000250: 52c9 9a3c ee15 dabc 004a af3c d570 45bd
00000260: b23d 16bd 78b6 6dbd b3c0 cd3c 3ded 0c3d
00000270: 7c5a 4dbd 58ab 703d d518 5e3b 1f2b c93c
00000280: 2f77 2dbd 6a76 79bd 29fb 58bd bcdc 35bd
00000290: 1789 18bd b224 cc3c 1c5c 0c3d 6ba8 f93c
000002a0: fbee 473d a009 f03b 738f f53c 2f4d 1e3d
000002b0: bd09 a8bc 7211 353d f56b e33c e1b9 843d
000002c0: b333 e73c 0ac0 a93b e5dd b53c 9aeb 9bbc
000002d0: 77f2 fabc e134 38bd 4634 babc 6d40 80bd
000002e0: d7aa 70bd 726d 3bbd fb13 95bc fc2f 493d
000002f0: 5638 493d dcd5 173d f54b a33c 4814 a3bc
00000300: a9a5 023d 7121 5fbc 8561 123d 29f0 e4bb
00000310: 7dc7 eebc ef44 80bb 4920 15bd e3b2 053d
00000320: 4213 9bbb 534a e8bc cbeb 0b3d 3147 0dbd
00000330: 0103 6cbd 716b 5bbc 4543 2bbd 9ffa 003b
00000340: 8f27 28bd 408f 6cbc ccc8 203d 3bea 413b
00000350: c198 92ba 6ff5 453d e45a f1bc f3a9 86bc
00000360: e365 0ebd a66f 5ebd 037d 423d 4454 393c
00000370: cedf 72bd fc67 773d a1ea 063c 5911 09bd
00000380: 4658 ae3c 9c14 123d 2ad3 433d 631d 363d
00000390: 67fe 4bbc e877 ca3b 5bee c2bb dffa c0bc
000003a0: 66e1 a0bc 1471 08bd efb1 8abc 57bf afbc
000003b0: 600c d4bc e02f 323a 9546 0d3d 620d 4f3b
000003c0: 867b 5abd 5013 dabb f496 3bbb 8b9d 8ebc
000003d0: f1a1 26bd 5a17 2e3d 7f43 40bd 81fc 8d3c
000003e0: ae9e 373d e69a 1bbc d4ab 323a 2b23 a8ba
000003f0: ff52 003b 72e4 1e3d 6c55 723d 5736 7dba

layer3.weight f4 [8, 256]
-0.03059098 0.055086967 -0.060380995 -0.03164917 -0.009796609 0.060463868 -0.043150127 -0.013083177
-0.05995951 0.023294527 -0.014655439 0.053910743 0.013173336 -0.050126135 -0.026952008 0.018297361
-0.061033513 -0.060316958 0.013013759 -0.05442184 0.045332596 -0.05203165 -0.03798725 0.043917112
0.061736885 -0.008866255 -0.001974277 0.007134848 -0.0059239636 -0.006495068 0.0036686324 0.057160918
0.017034633 0.028277526 -0.02485446 0.04187518 -0.027722858 -0.031608675 -0.0021119588 0.042328816
0.05049717 0.05517656 0.023938397 -0.043043204 0.015189304 -0.021023225 -0.008842655 0.0055338386
-0.003897687 0.028607495 -0.033999648 0.054399263 0.022488777 -0.062440824 -0.043562412 -0.031852003
-0.055502955 0.05594038 0.008087138 -0.054095775 -0.041709386 -0.013770245 -0.02770173 -0.009149089
0.033586334 -0.01737464 0.032762818 -0.021185521 0.037621044 0.0058976836 0.0021205302 -0.037056085
-0.054931074 0.060912 -0.03223781 0.058617517 0.02673577 0.056359764 0.035915907 0.007879219
0.057903156 -0.0020945785 0.059198916 -0.057479877 -0.056971177 0.013220423 -0.02264923 0.007739742
-0.042283468 -0.022520889 -0.034914292 0.04675975 0.027342055 0.03539873 -0.0034144456 -0.04103594
0.021883326 0.06399258 -0.029235676 0.012443193 -0.03773731 -0.015729439 0.001863708 -0.033763
-0.046129722 0.051690213 -0.02934853 0.010365301 -0.019041605 -0.010871988 0.008025889 -0.023628509
0.05420239 -0.019547567 0.06236716 0.036266945 -0.04327403 0.0013533587 -0.05935123 0.030201547
0.009736251 0.026631813 0.051869474 -0.019853616 0.037908427 0.035515256 -0.015594377 -0.033218984
-0.02606259 0.03654653 -0.037161212 0.040252794 -0.034182813 0.042032305 0.03938506 -0.05355794
-0.039867055 0.02935896 0.041692477 -0.05961042 0.013670979 -0.0073568076 -0.047617625 0.03251197
-0.01285982 0.024325384 -0.024207518 0.015275726 0.052554388 0.03238881 0.03141911 0.026074398
0.005736107 -0.0029186101 -0.021140544 -0.046882343 -0.049884122 0.056727882 -0.017464457 -0.015512093
-0.05403906 -0.026657041 0.020764975 0.051252324 0.029200546 -0.05344222 0.013141464 -0.0395636
0.05542288 -0.036252193 0.024265729 -0.02727116 0.028225297 -0.022132188 0.021447964 0.008858973
0.057515636 -0.0036377958 0.039746784 0.05442297 -0.0383753 0.02371378 0.031195492 -0.011769031
0.039849717 -0.05758883 -0.04581093 -0.033847094 -0.034802843 0.040394597 0.007609609 -0.035191562
-0.019703371 0.057227753 0.010367748 -0.04872833 -0.04581893 -0.017742671 0.044129904 0.0061631403
0.054472387 0.04439792 0.037918285 0.045557156 0.023519253 0.059385095 -0.002328442 -0.01372102
0.048246805 0.004699811 -0.036522236 0.036527 0.043840077 -0.031950317 0.032143082 -0.033158027
0.028028565 0.024863208 -0.044301204 0.062192168 -0.02948047 4.7585825e-05 0.027606651 0.03974623
-0.021103667 0.055906687 0.046686906 0.016898608 -0.019965123 0.054551322 -0.029637754 0.014479607
-0.030756976 -0.021788081 0.005897448 0.039317925 0.04264031 0.048902184 -0.03578575 -0.014121951
-0.04349831 0.04635365 0.029162236 -0.004686135 -0.061622877 -0.029013386 0.06227083 -0.03380492
0.0009986869 -0.03994218 -0.055315096 -0.05973388 -0.055458624 -0.05615822 -0.050755657 -0.018339869
00000000: ef99 fabc dfa2 613d 1052 77bd 8fa2 01bd
00000010: f581 20bc f6a8 773d 30be 30bd d25a 56bc
00000020: 1a98 75bd 2ad4 be3c 5e1d 70bc 83d1 5c3d
00000030: fad4 573c 1051 4dbd 75ca dcbc 59e4 953c
00000040: 47fe 79bd ea0e 77bd a937 553c 6fe9 5ebd
00000050: acae 393d 241f 55bd 8598 1bbd 6ee2 333d
00000060: d1df 7c3d c543 11bc df62 01bb 71cb e93b
00000070: cf1d c2bb 94d4 d4bb 706d 703b 9121 6a3d
00000080: 378c 8b3c 45a6 e73c 959b cbbc 4f85 2b3d
00000090: 0c1b e3bc 1978 01bd ca68 0abb fb60 2d3d
000000a0: 1fd6 4e3d d100 623d 751a c43c 124e 30bd
000000b0: 8fdc 783c e638 acbc c9e0 10bc 3455 b53b
000000c0: 5670 7fbb 445a ea3c 3743 0bbd c3d1 5e3d
000000d0: 623a b83c f3c1 7fbd 806e 32bd 3f77 02bd
000000e0: 1157 63bd bd21 653d ea7f 043c 8893 5dbd
000000f0: 76d7 2abd 989c 61bc bdee e2bc 10e6 15bc
00000100: d391 093d 4355 8ebc 4e32 063d 428d adbc
00000110: 8618 1a3d 5b41 c13b 98f8 0a3b 1fc8 17bd
00000120: 68ff 60bd dc7e 793d cb0b 04bd ec18 703d
00000130: f904 db3c 7fd9 663d 8f1c 133d d717 013c
00000140: dc2b 6d3d 3245 09bb 907a 723d 0570 6bbd
00000150: 9c5a 69bd 799a 583c e18a b9bc a99d fd3b
00000160: 6e31 2dbd ba7d b8bc 4a02 0fbd 2787 3f3d
00000170: 72fc df3c 42fe 103d e4c4 5fbb 4d15 28bd
00000180: a944 b33c 8b0e 833d a87f efbc 89de 4b3c
00000190: 7092 1abd 06db 80bc aa47 f43a 124b 0abd
000001a0: 85f2 3cbd 1eb9 533d 546c f0bc 39d3 293c
000001b0: 24fd 9bbc 6c20 32bc 057f 033c 9390 c1bc
000001c0: 5303 5e3d 3822 a0bc b574 7f3d a68c 143d
000001d0: 1c40 31bd 2f63 b13a 461a 73bd 3c69 f73c
000001e0: cc84 1f3c f62a da3c 1675 543d 0da4 a2bc
000001f0: de45 1b3d 7278 113d 8f7f 7fbc a110 08bd
00000200: 3681 d5bc d0b1 153d 5b36 18bd 1de0 243d
00000210: 4703 0cbd 112a 2c3d 3b52 213d 925f 5bbd
00000220: a34b 23bd 3482 f03c bbc5 2a3d 0e2a 74bd
00000230: 3efc 5f3c 6011 f1bb b30a 43bd 452b 053d
00000240: ffb1 52bc 0746 c73c d84e c6bc 0a47 7a3c
00000250: 4543 573d 21aa 043d 53b1 003d fa99 d53c
00000260: f4f5 bb3b 2746 3fbb ef2e adbc b307 40bd
00000270: 4b53 4cbd 7f5b 683d 9f11 8fbc 6f26 7ebc
00000280: 1058 5dbd de5f dabc 4f1b aa3c f5ed 513d
00000290: fc35 ef3c 3be6 5abd 4c4f 573c 710d 22bd
000002a0: 1a03 633d 2e7d 14bd ecc8 c63c c567 dfbc
000002b0: bd38 e73c 904e b5bc a4b3 af3c 3a25 113c
000002c0: 8495 6b3d 1668 6ebb 86cd 223d 9fea 5e3d
000002d0: 6b2f 1dbd 6743 c23c b08d ff3c e5d2 40bc
000002e0: 7539 233d 44e2 6bbd 3ea4 3bbd 40a3 0abd
000002f0: 6d8d 0ebd ce74 253d 075a f93b 0725 10bd
00000300: f768 a1bc a667 6a3d 7ddd 293c 5b97 47bd
00000310: a1ac 3bbd 1459 91bc 8fc1 343d 2bf4 c93b
00000320: 701e 5f3d 98da 353d 3450 1b3d 249a 3a3d
00000330: 73ab c03c c93d 733d c698 18bb 21ce 60bc
00000340: 719e 453d df00 9a3b 5798 15bd 569d 153d
00000350: a791 333d 56de 02bd 77a8 033d b6d0 07bd
00000360: 299c e53c edad cb3c 2e75 35bd 37bd 7e3d
00000370: 0781 f1bc e496 4738 5827 e23c f1cc 223d
00000380: 99e1 acbc 69fe 643d c53a 3f3d f36e 8a3c
00000390: e68d a3bc 3571 5f3d e0ca f2bc e03b 6d3c
000003a0: 0ef6 fbbc eb7c b2bc 613f c13b d50b 213d
000003b0: 9ba7 2e3d a84d 483d 1494 12bd c15f 67bc
000003c0: 492b 32bd 53dd 3d3d a4e5 ee3c 268e 99bb
000003d0: 4568 7cbd 7bad edbc b30f 7f3d 0777 0abd
000003e0: 5fe6 823a 699a 23bd 1592 62bd 83ab 74bd
000003f0: 9528 63bd 2906 66bd 2ae5 4fbd 7e3d 96bc

layer3.bias f4 [8]
0.046734065 0.041330304 0.032472264 0.03735967 -0.010027363 -0.03888475 0.05745415 0.032771334
00000000: 386c 3f3d f749 293d a301 053d 7406 193d
00000010: cf49 24bc 9e45 1fbd 0b55 6b3d 3c3b 063d
